data.pth (torch, 12010 bytes, 6 tensors)

l1.weight f4 [8, 181]
-0.24843113 -0.4852115 -0.51660776 -0.22535123 -0.17684142 -0.40438843 -0.097562104 0.78534985
0.09850088 -0.0086377105 -0.26156923 0.2660093 0.819231 0.8434056 -0.38174924 -0.17164636
-0.2469332 -0.37779018 -0.10075267 0.022758657 -0.20647232 1.4223765 0.48653132 0.5738
-0.31832474 -0.50528145 0.09175643 -0.18758526 -0.4732708 -0.40136963 -0.2486501 1.0670596
-0.0014778527 0.6609854 0.9574004 0.66988176 -0.028592668 0.4316494 -0.021937046 -0.28990674
-0.11038293 0.16402084 -0.31265968 -0.24136467 -0.7083065 -0.06799831 -0.52481526 -0.07322612
-0.3592983 -0.5591016 -0.17255561 -0.6804928 -0.29771522 0.66592234 -0.030851375 1.0911468
0.32336423 1.0599903 0.040786643 -0.009045909 -0.28396106 0.47510064 0.22035107 0.9236661
-0.18869816 -0.2043302 -0.06053441 -0.27130827 -0.28641856 0.577669 -0.017845284 -0.120921515
1.24488 1.0564466 1.0895756 0.24043751 1.5406597 -0.42000052 -0.18850791 1.4035976
1.4373854 1.5609717 0.6163373 -0.2839386 0.586622 0.6107909 -0.44462636 -0.36631346
-0.07922809 0.86050457 -0.8913803 0.30447128 0.034535524 0.5416419 0.099049896 -0.1934299
-0.06785864 0.628859 -0.4463598 -0.2536853 0.1216272 -0.47452006 0.706868 0.7455986
0.06909316 -0.32281247 -1.0869743 0.7244721 -0.5597515 -0.5013072 -0.23109256 0.22126213
-0.46773797 0.81603366 0.026483387 0.8073801 0.2753209 0.6557066 -1.0246811 0.41224805
-0.24187453 -0.5838896 -0.32541895 0.6182755 -0.15711397 0.81385064 0.45062113 -0.039154246
-0.22864264 -0.3534459 0.28007647 0.37885287 -0.07296542 -0.31004173 -0.61817175 -0.34888646
0.53863853 0.6959255 0.45457742 0.054846175 -0.21720412 0.2915141 -0.11393086 -0.27837777
1.1048167 0.7800946 0.28301212 0.059228763 0.40366572 -0.0036754312 0.32115152 0.6558073
-0.28216013 -0.98071367 0.07210804 0.31968203 -0.8613353 0.256684 0.8628762 0.22075771
-0.28125352 -0.9440169 -0.02960164 0.413546 0.542349 -0.03263678 0.00671832 0.62892807
-0.5142533 -0.35756838 -0.009521917 0.53378356 -0.5261555 -0.34119886 0.37290978 0.30830315
0.029905636 0.107127525 0.5106419 -0.13915063 -0.20117576 -0.10523972 -0.5001071 0.1691886
-0.27999523 -0.2459414 0.016214104 -0.008729806 -0.26081082 0.21820384 0.03886469 0.08419117
-0.26937726 -0.18949126 0.37463588 0.02210166 0.107174434 0.03727441 0.024467874 -0.16946903
0.41567305 0.058138978 0.62941337 0.031511623 0.40433726 0.006742752 0.1276744 0.5204997
-0.5607639 0.04295658 0.026003364 0.68164104 -0.40053138 0.6794382 -0.18272644 -0.60647064
-0.06817222 -0.3689525 -0.09781788 -0.32909423 0.090139486 0.92104685 -0.22685987 -0.6059205
0.22447199 0.21981806 -0.26791912 0.1817823 0.030781098 -0.44003916 0.121597715 -0.21016039
0.9938753 0.71963537 0.69881123 -0.21759138 -0.14878865 0.3986541 -0.7318965 0.09020153
0.03004666 0.6768194 0.01633715 0.31286326 1.3538718 0.047209013 0.08134254 0.18153813
0.032971248 -0.52120155 -0.19040054 -0.2995733 -0.027517395 -0.211838 -0.40114865 -0.69803226
00000000: bb64 7ebe a46d f8be 6840 04bf 79c2 66be
00000010: eb15 35be 000c cfbe a4ce c7bd b00c 493f
00000020: d4ba c93d 2f85 0dbc 67ec 85be 5f32 883e
00000030: 1fb9 513f 6ee9 573f a374 c3be 10c4 2fbe
00000040: 0fdc 7cbe b76d c1be 6a57 cebd 5d70 ba3c
00000050: 7b6d 53be 6f10 b63f a21a f93e 8fe4 123f
00000060: 76fb a2be 205a 01bf ccea bb3d 5a16 40be
00000070: 8d50 f2be 5280 cdbe 229e 7ebe 6995 883f
00000080: 82b4 c1ba 5736 293f 3118 753f 5f7d 2b3f
00000090: 2c3b eabc 2601 dd3e 52b5 b3bc a86e 94be
000000a0: 7210 e2bd 14f5 273e ee14 a0be 4d28 77be
000000b0: 9353 35bf b342 8bbd 4b5a 06bf 93f7 95bd
000000c0: f2f5 b7be 4821 0fbf 6bb2 30be c734 2ebf
000000d0: 216e 98be e379 2a3f 06bc fcbc b3aa 8b3f
000000e0: ff8f a53e c3ad 873f e50f 273d 4b35 14bc
000000f0: 5863 91be 6440 f33e b6a3 613e 6275 6c3f
00000100: 173a 41be f03b 51be eef2 77bd ebe8 8abe
00000110: 74a5 92be 1ee2 133f 4630 92bc b3a5 f7bd
00000120: 3a58 9f3f a439 873f 3777 8b3f 4035 763e
00000130: 5634 c53f 4f0a d7be 3808 41be 16a9 b33f
00000140: 3ffc b73f eccd c73f 48c8 1d3f 6660 91be
00000150: dc2c 163f cb5c 1c3f 11a6 e3be 708d bbbe
00000160: 5642 a2bd 074a 5c3f 8031 64bf a9e3 9b3e
00000170: 1f75 0d3d 0ba9 0a3f acda ca3d 7d12 46be
00000180: 78f9 8abd e7fc 203f 4689 e4be 0ae3 81be
00000190: ae17 f93d 4bf4 f2be 4df5 343f 8ddf 3e3f
000001a0: b780 8d3d ad47 a5be f921 8bbf 0177 393f
000001b0: e04b 0fbf ab55 00bf 87a3 6cbe 8a92 623e
000001c0: 5a7b efbe 95e7 503f b0f3 d83c 76b0 4e3f
000001d0: dcf6 8c3e 63dc 273f c028 83bf 2d12 d33e
000001e0: f5ad 77be ca79 15bf 509d a6be 4e47 1e3f
000001f0: 7ce2 20be 8458 503f d0b7 e63e 3460 20bd
00000200: 4c21 6abe dcf6 b4be 2f66 8f3e 01f9 c13e
00000210: e56e 95bd cabd 9ebe 8140 1ebf 3fa1 b2be
00000220: 37e4 093f 2c28 323f 5fbe e83e 62a6 603d
00000230: c26a 5ebe 5641 953e 9554 e9bd 8887 8ebe
00000240: a26a 8d3f 48b4 473f f7e6 903e dc99 723d
00000250: 46ad ce3e 81df 70bb f96d a43e fde2 273f
00000260: 4b77 90be 0d10 7bbf 61ad 933d 5dad a33e
00000270: 7880 5cbf 166c 833e 74e5 5c3f 4f0e 623e
00000280: 7600 90be 17ab 71bf 237f f2bc 4dbc d33e
00000290: 62d7 0a3f 25ae 05bd 5a25 dc3b 6e01 213f
000002a0: 1ba6 03bf 3413 b7be d101 1cbc 0aa6 083f
000002b0: 20b2 06bf 9eb1 aebe 08ee be3e e9d9 9d3e
000002c0: aafc f43c ad65 db3d 6db9 023f 817d 0ebe
000002d0: 0501 4ebe ec87 d7bd 0507 00bf c73f 2d3e
000002e0: 895b 8fbe 10d8 7bbe 71d3 843c 7607 0fbc
000002f0: ff88 85be d470 5f3e 9530 1f3d 6c6c ac3d
00000300: d1eb 89be ff09 42be 46d0 bf3e 8a0e b53c
00000310: 457e db3d 0dad 183d da70 c83c 4a89 2dbe
00000320: 19d3 d43e 2323 6e3d 3c21 213f 5512 013d
00000330: 4b05 cf3e 4ef2 dc3b 14bd 023e 783f 053f
00000340: 398e 0fbf 3df3 2f3d 0205 d53c 0780 2e3f
00000350: 7312 cdbe a9ef 2d3f a41c 3bbe a941 1bbf
00000360: e09d 8bbd 58e7 bcbe be54 c8bd 0a7f a8be
00000370: 0d9b b83d bac9 6b3f f44d 68be 9b1d 1bbf
00000380: fcdb 653e fc17 613e b22c 89be 2425 3a3e
00000390: a428 fc3c d04c e1be 3908 f93d 4934 57be
000003a0: 9d6e 7e3f 063a 383f 4be5 323f 46d0 5ebe
000003b0: 0d5c 18be 641c cc3e 925d 3bbf 94bb b83d
000003c0: 6a24 f63c 0944 2d3f 7dd5 853c 9d2f a03e
000003d0: ac4b ad3f 3d5e 413d eb96 a63d 22e5 393e
000003e0: dc0c 073d 776d 05bf 5cf8 42be ac61 99be
000003f0: 296c e1bc 10ec 58be 5b63 cdbe 3eb2 32bf

l1.bias f4 [8]
0.75347376 0.39807412 1.0432107 0.9751161 0.7509443 1.13959 1.1886679 0.49654716
00000000: a8e3 403f 5fd0 cb3e ee87 853f 35a1 793f
00000010: e33d 403f 16de 913f 4526 983f 6e3b fe3e

l2.weight f4 [8, 8]
-1.4566275 0.584143 1.0000218 1.2351176 0.22686529 0.8690238 1.145319 -1.991329
-0.039724387 -0.3571821 -0.12603787 0.16364007 0.07876565 -0.17745934 -0.06513073 -0.063955225
-0.15283628 0.3642906 -1.6707321 1.9946942 1.9908892 1.1298984 -0.07421341 0.7270251
0.18473107 -1.5090988 0.84359586 1.0169411 0.106284104 -0.28636947 1.2192823 0.9624049
-1.3712376 0.9800358 0.6939686 -1.3684317 0.99479645 0.99687153 0.87290335 2.235586
1.1224805 -1.0997262 -0.46196625 -1.3914853 0.8610089 1.5001779 1.4065572 0.32057878
2.477111 -0.29581437 2.3925972 0.9831564 -1.1363322 -0.04891972 -0.30348632 0.687114
0.4890511 -1.0369383 1.28887 0.843884 0.4093622 0.47410354 -0.12374504 -1.2221291
00000000: c572 babf 658a 153f b700 803f 5518 9e3f
00000010: 604f 683e 5878 5e3f d099 923f dee3 febf
00000020: 0ab6 22bd 92e0 b6be 1210 01be 4391 273e
00000030: e34f a13d e7b7 35be 4363 85bd f5fa 82bd
00000040: 1d81 1cbe 4c84 ba3e 8dda d5bf 2452 ff3f
00000050: 75d5 fe3f 83a0 903f 33fd 97bd 511e 3a3f
00000060: 242a 3d3e 262a c1bf e6f5 573f 202b 823f
00000070: 7bab d93d 059f 92be 7111 9c3f 2b60 763f
00000080: b784 afbf a0e3 7a3f eda7 313f c528 afbf
00000090: fbaa 7e3f f932 7f3f 9876 5f3f d713 0f40
000000a0: 71ad 8f3f d4c3 8cbf d786 ecbe 311c b2bf
000000b0: 146b 5c3f d405 c03f 110a b43f e722 a43e
000000c0: fd88 1e40 fb74 97be 5020 1940 23b0 7b3f
000000d0: 5573 91bf 0b60 48bd 8f62 9bbe b4e6 2f3f
000000e0: e864 fa3e 65ba 84bf b1f9 a43f c808 583f
000000f0: ec97 d13e b3bd f23e 0a6e fdbd ba6e 9cbf

l2.bias f4 [8]
0.7441226 -0.102903925 0.4280336 0.40224078 0.030478686 0.7690875 0.81442 0.7951411
00000000: d27e 3e3f 4bbf d2bd 3827 db3e 81f2 cd3e
00000010: 70ae f93c ebe2 443f d47d 503f 5e8e 4b3f

l3.weight f4 [22, 8]
-0.32757533 0.059809256 0.24471745 0.7993358 -0.047739033 -0.057438098 -0.9074256 -1.8328799
-0.7851336 -0.3690308 -1.6250067 -0.17461276 -2.0034592 -1.8552122 0.8804552 0.94954705
-2.2750032 -0.36412388 -0.015986668 0.39541137 -0.22098419 0.7791619 -0.29459307 -1.4931052
0.2583989 0.28241864 0.18673964 0.089163184 -0.11877079 0.2919223 -1.1628959 0.4403133
-0.43472797 0.28687274 -0.12048958 -1.0793517 0.62186605 -0.57455564 0.46305776 -2.03209
-1.972301 -0.3035588 -0.10584908 -2.1396685 -0.4741417 0.92061996 0.6349367 0.0058173165
-1.6495925 -0.00019741447 0.74777615 -0.4874961 -2.014322 0.11042665 -0.01305774 0.30920887
-0.694998 0.07415812 0.6365783 -0.3391269 0.3606011 0.74822074 -2.381416 -2.342554
0.23644355 -0.18112227 0.81824446 -2.4668472 0.32097596 -1.012361 -1.2030962 -0.7342881
-2.1312637 -0.17867196 0.27003598 -2.0495117 0.6740615 0.74554545 -0.5237538 -1.4464464
0.08709425 -0.24010804 0.8715182 -2.120527 -0.9607721 -0.90323114 0.4511215 -0.50185204
0.5123747 -0.23705088 0.06806029 0.12619458 -2.1520681 -2.0284753 0.26866397 0.3094146
-0.24044593 -0.1365452 0.054039292 0.4047968 -0.21929874 -0.6707044 -0.19383098 -0.27843845
-2.392404 0.11645425 -1.6782165 0.42900303 -0.07083454 0.07097703 0.58676 -0.61796254
0.46259323 -0.007021568 0.061614696 -0.5732562 0.09089849 0.30789107 -1.1609238 -0.17966972
0.43073073 0.2309142 -2.3916402 0.77279437 -2.5287147 0.22289312 0.26552916 0.25589767
-2.7301288 0.23892254 -0.98288614 0.92572045 -2.0122087 -0.14061964 0.6629391 0.18171571
0.26110077 0.18101287 -0.14902265 0.39723906 -1.936627 0.4164303 -0.39132005 0.51197356
0.3848122 -0.015993414 -1.7491119 0.34984443 0.023200996 -2.002359 0.23841304 0.28533953
-0.8243058 0.003970105 -1.2833961 0.43916395 0.46303615 0.49095893 -0.42702946 -0.24886069
1.0246625 0.29269072 0.77771205 0.3838047 -0.93528366 -1.644663 -1.393039 -0.17587696
0.51766354 -0.30585095 -1.2284076 -0.45539972 0.0115285795 0.30990827 -0.32069588 0.6294671
00000000: f4b7 a7be 8dfa 743d 3697 7a3e 45a1 4c3f
00000010: 018a 43bd 3644 6bbd 0b4d 68bf cf9b eabf
00000020: 84fe 48bf 9bf1 bcbe 3800 d0bf b0cd 32be
00000030: ad38 00c0 9877 edbf 8365 613f 8415 733f
00000040: a799 11c0 726e babe 79f6 82bc 5c73 ca3e
00000050: ae49 62be 2777 473f e7d4 96be 121e bfbf
00000060: dc4c 843e 2d99 903e ad38 3f3e 309b b63d
00000070: 1a3e f3bd d776 953e c6d9 94bf bf70 e13e
00000080: aa94 debe fce0 923e 3ec3 f6bd 3228 8abf
00000090: 9d32 1f3f 1416 13bf e815 ed3e c30d 02c0
000000a0: 5c74 fcbf 0f6c 9bbe 67c7 d8bd 54f0 08c0
000000b0: b3c2 f2be c0ad 6b3f 368b 223f 309f be3b
000000c0: d925 d3bf 0b01 4fb9 426e 3f3f 1799 f9be
000000d0: a7ea 00c0 5e27 e23d 22f0 55bc a050 9e3e
000000e0: 64eb 31bf 36e0 973d ccf6 223f 0ba2 adbe
000000f0: b5a0 b83e 658b 3f3f 1f69 18c0 68ec 15c0
00000100: 421e 723e 1e78 39be 7878 513f d3e0 1dc0
00000110: f656 a43e 0c95 81bf 0eff 99bf 4efa 3bbf
00000120: a066 08c0 c8f5 36be 2842 8a3e 332b 03c0
00000130: 4b8f 2c3f 11dc 3e3f bb14 06bf 2825 b9bf
00000140: 785e b23d e2de 75be d11b 5f3f b7b6 07c0
00000150: 29f5 75bf 283a 67bf 66f9 e63e 6079 00bf
00000160: fd2a 033f 77bd 72be 3163 8b3d 2739 013e
00000170: 7cbb 09c0 8ad2 01c0 538e 893e 976b 9e3e
00000180: 7537 76be 81d2 0bbe 4e58 5d3d 8741 cf3e
00000190: d98f 60be 49b3 2bbf a17b 46be 7c8f 8ebe
000001a0: 261d 19c0 917f ee3d cccf d6bf 49a6 db3e
000001b0: b311 91bd 685c 913d e735 163f cb32 1ebf
000001c0: 05d9 ec3e 2e15 e6bb b15f 7c3d ebc0 12bf
000001d0: fd28 ba3d e6a3 9d3e 2799 94bf 57fb 37be
000001e0: bd88 dc3e c674 6c3e a210 19c0 dad5 453f
000001f0: 76d6 21c0 183e 643e 70f3 873e 0505 833e
00000200: 6eba 2ec0 1ca8 743e 6d9e 7bbf 04fc 6c3f
00000210: 07c8 00c0 98fe 0fbe 60b6 293f af13 3a3e
00000220: 00af 853e 705b 393e 6599 18be eb62 cb3e
00000230: 65e3 f7bf 5a36 d53e 1a5b c8be b310 033f
00000240: 1b06 c53e 9f04 83bc e6e2 dfbf cf1e b33e
00000250: 0410 be3c a626 00c0 8c22 743e 0618 923e
00000260: b405 53bf a817 823b 5346 a4bf 19da e03e
00000270: 1313 ed3e f85e fb3e 9ba3 dabe 56d5 7ebe
00000280: 2428 833f 8fdb 953e 2318 473f 0d82 c43e
00000290: c06e 6fbf 5184 d2bf 1a4f b2bf 1719 34be
000002a0: 9985 043f 7f98 9cbe 763c 9dbf 272a e9be
000002b0: 5ee2 3c3c 4cac 9e3e 4032 a4be c224 213f

l3.bias f4 [22]
-0.64052105 -0.16577794 -0.3669185 -0.43992868 0.10148449 0.36355537 0.12178771 -0.08782242
-0.39049873 0.25041226 0.27962887 -0.3360552 -0.776095 -0.2764956 -0.47473884 0.3715578
-0.008174133 0.28569987 0.4519657 -0.41581717 0.33396542 0.007292179
00000000: 30f9 23bf b1c1 29be bedc bbbe 553e e1be
00000010: 1ad7 cf3d ee23 ba3e d66b f93d 3edc b3bd
00000020: 73ef c7be 0936 803e 842b 8f3e 6d0f acbe
00000030: 29ae 46bf d590 8dbe f810 f3be d33c be3e
00000040: ccec 05bc 4147 923e 0c68 e73e fde5 d4be
00000050: 84fd aa3e 3bf3 ee3b
